saved_models/model_BDE_epo-400_mse-170.pt (torch, 110925 bytes, 10 tensors)

Linear1.weight f8 [64, 13]
00000000: acdf e4ea f6be db3f 0331 c4fc 1c10 903f
00000010: 74f6 daf8 4c73 963f 3338 9f8b d821 d0bf
00000020: 578c b70e 01ea a53f fd2e 711f 2cf9 c53f
00000030: 479b 45c5 8585 ae3f 9814 80e7 4227 d3bf
00000040: eff5 d5ec dbf6 d0bf 2bdf 9997 a467 b1bf
00000050: 792f 6c1a 0b6d da3f d8e5 dd85 a581 b63f
00000060: bf3d aeb1 0f8b d83f 6897 b4e0 82f7 ce3f
00000070: d692 d920 5004 933f 8b86 b854 0b2e 993f
00000080: 4722 d1d2 2ce1 d6bf 1f78 5f04 47c4 ba3f
00000090: 2e89 8272 89d4 853f ad3c 5037 0e4a 803f
000000a0: 56b9 6a6d 1416 e2bf 7524 dde3 4833 b8bf
000000b0: 55e1 9b39 da49 c0bf 5236 b293 d1f3 c8bf
000000c0: 6a7c 97f8 dad4 d13f bc00 68ce 0924 e03f
000000d0: abdd 0afb 2948 983f e9dc a83a 08ca c03f
000000e0: 5efd 9e1c 4aed d23f 14ac 3740 0d02 d53f
000000f0: 0691 723c 13d0 6e3f 2b7c 0720 a06e b9bf
00000100: 6210 dc4b 5ede ba3f f51d e7f1 0ec6 eabf
00000110: 4a45 0370 2856 8c3f 0820 3019 9b46 cabf
00000120: 9d90 6687 7947 c2bf 5dbc d360 3b86 c23f
00000130: 226a 9f52 98f2 c83f 10af bffc 7cff c0bf
00000140: e14b ab19 127e 71bf a3fd 65a2 3680 74bf
00000150: 7f0a b5ec cfb6 d03f 92f0 e7a5 51c2 a1bf
00000160: 668f a58f 0828 713f 2818 2b02 db64 44bf
00000170: 712d f682 f6f1 a5bf 4f7b 458f 9c1f d13f
00000180: 7ddc 80ca ad7a db3f 1208 42f2 9198 d03f
00000190: aedb 9604 2a58 d83f d3a0 50f5 efd1 d73f
000001a0: 29bb aea1 8dcb d0bf 0172 f973 815f 8fbf
000001b0: 304a 093e d1f1 88bf e81a 4b33 ff25 b8bf
000001c0: 7b5e f857 f746 a73f 901f 1735 1392 c93f
000001d0: 8de6 1a62 2665 bbbf d3ff a073 bf54 b6bf
000001e0: d3be 0cde 1e2d db3f 168a 691b 674a c83f
000001f0: e7e5 74e2 350e e6bf 01d2 c018 1aea e5bf
00000200: c5d0 1284 a1b2 ef3f 3159 e541 5bb0 a83f
00000210: e92c f191 84e3 943f d5f4 5356 58ae 973f
00000220: e76b eed6 0ce6 d43f 5e15 7579 2b23 3b3f
00000230: 091a 9efb 5941 6dbf aa58 148d a796 b43f
00000240: 4635 022d e607 d33f 4e8b f9ec 6b6b d23f
00000250: 6fb7 3ac7 14d3 d53f ebb8 c054 caa5 d63f
00000260: 2b24 be71 accb da3f 6700 5ddb 3ac4 d03f
00000270: 95b3 fa09 3cbf b9bf 3eeb 9e7b aef1 95bf
00000280: acfa 58a4 4ab6 8ebf 41f7 455a b455 c1bf
00000290: c50d 7f5e 6d83 6cbf 4194 b1a1 13b5 c43f
000002a0: 574f ccf0 c138 d03f 7cb5 6504 7921 c93f
000002b0: cd49 cb38 5dab 983f 05ce e608 ad2c cc3f
000002c0: 7837 f461 5276 c13f 91c7 5bbe 4fb4 c8bf
000002d0: 8fca d906 bb1a dd3f 1d25 4f28 7566 e33f
000002e0: 5826 1626 5577 773f 29eb c085 0ba9 7d3f
000002f0: aad9 dd02 56d5 943f 7d6a da63 8c02 1abf
00000300: e93e 9a89 be5c d3bf 251a 50cc 412b 6b3f
00000310: 93fa c0ff 8dd9 b3bf 9835 c79f 6733 b3bf
00000320: 08db 1ec3 1715 a6bf ba95 2823 156b b4bf
00000330: c4a6 8bf7 2b1e 843f 30af 8d58 7902 cc3f
00000340: 9140 8652 adf3 b83f 268c f30b de85 a93f
00000350: e6e2 492a 9185 c23f aaa4 7da7 f872 d1bf
00000360: ec01 95e9 7a21 cfbf 1f50 f1bc 64c9 913f
00000370: 59b6 5dd1 1e9e d33f 60ec 2229 e34e d93f
00000380: eb81 9fa3 5f5b 923f 03e6 b571 d156 d63f
00000390: 0b5d a8ed 23d8 a4bf 5c4f 1f10 9c48 c33f
000003a0: 6509 2ff3 e31c b1bf 5ae6 0e5c 0479 bfbf
000003b0: ae8a 4ee7 4218 b1bf fe35 9c02 0ec1 b8bf
000003c0: 6043 37b3 331a babf e293 800a 1608 d2bf
000003d0: ab60 6815 8fbb b43f 07b4 6b29 77be a2bf
000003e0: 44d3 7473 d93c ddbf bdae ee71 b21a c93f
000003f0: 8d55 b97e 1b42 b03f c811 8978 c287 a23f
00000400: 1c3b 3760 a947 d73f 8d78 dbe4 3012 ef3f
00000410: e02d a23d a24d d23f e86b 12c9 9d3a 9cbf
00000420: 1260 daa1 0b9c a7bf 3d8d 13b8 880f d43f
00000430: c52c cba1 ccc4 c0bf ed6b 3500 e053 753f
00000440: 341b 3cdc 1a6d 903f 6a5a ac10 a05d 94bf
00000450: ef6e d0b5 6675 a7bf 5e6e b1d8 a991 dd3f
00000460: d6fc 9cbc 8fb2 dcbf f907 1f0a 966c e13f
00000470: 8b0b 269f 0333 e23f bd59 3ace 0a38 f23f
00000480: 5402 c013 13f1 5f3f 08e2 e648 ccef 763f
00000490: 576d 56e1 3e61 94bf 2992 b71e 9921 883f
000004a0: ae21 ddad b7a2 863f c437 43be 1c78 723f
000004b0: 322c 4752 1fcd d63f 4ece d336 6d60 d93f
000004c0: 6e05 0c1b 1286 d93f 43c0 ae64 e237 d83f
000004d0: 57e4 70b2 ec87 d63f c870 18eb 012e d63f
000004e0: 720c 865f 1ff2 e2bf 37c8 22b5 7251 93bf
000004f0: fc2b 68c9 a81c 95bf 3e07 129a e5d1 b83f
00000500: 907f 1e6f 445d aebf 7dab e9d7 3380 9dbf
00000510: 1f44 e019 8195 7a3f 2c0b 752e 4e72 e0bf
00000520: aff8 39e9 4444 c73f ba0a 3bd4 493e d53f
00000530: 3b2f 4e81 18e7 c13f 3aee 3ac2 274f ca3f
00000540: 6342 6fea 56e8 cc3f d8c9 24e4 5d56 e73f
00000550: a7e9 a13e e423 8a3f f9ba 7de2 0390 973f
00000560: 073f 3446 61df d03f 545d 63d1 0b4c 943f
00000570: fbf5 d296 8073 a2bf 42d3 4405 6e56 9b3f
00000580: fba4 2709 bcaa 923f 1135 d08a 0d70 e3bf
00000590: 6bdc 3cc5 7770 efbf 1c85 5c56 2e3d ecbf
000005a0: 6285 e3b5 8224 c9bf 7cb6 3afa a090 943f
000005b0: 1d58 992c e30c b03f 239f e5f3 b00c bd3f
000005c0: 1b10 0561 446c c13f 10ab d094 4d20 d9bf
000005d0: 89b4 16b9 7779 d23f a5af 0223 6dcb a6bf
000005e0: d6b6 9def 9d2d ad3f 87c0 7c8b 9104 d83f
000005f0: 64cc 226f 855a c33f f53c 9aa2 25a5 d63f
00000600: ba06 0ae4 2ce8 d73f 5331 cbdf e97b d23f
00000610: f470 8473 9838 f0bf 760b 0866 2d61 acbf
00000620: 46de dff0 551b b2bf 00fd 4a5f 58be b7bf
00000630: 5bbe 56d9 bb59 c03f 14a4 a177 763e d4bf
00000640: eab7 297f 09c5 c53f 97b3 e18c b070 9cbf
00000650: ebd5 acbb 7e14 c23f 2264 4faf 5ab1 c2bf
00000660: dfd4 d916 a358 db3f f1eb 71dc a625 e23f
00000670: 9147 c2e2 084e de3f cde0 3c52 7a59 e73f
00000680: 8a5a 8f8c 71f1 b3bf 7189 c7d7 e34a 7ebf
00000690: b426 315a 66f4 8cbf c416 1d26 d31f cd3f
000006a0: 3a0f 7908 d740 b0bf 904f 1788 92d9 97bf
000006b0: cbfa cb18 2ff3 9e3f f152 9d77 6667 dbbf
000006c0: d459 3e0f a2d2 b7bf abab e3cc 85a5 c03f
000006d0: e99a f262 43b4 c23f d4db 4de8 9f1d c53f
000006e0: e183 d33c d9a6 de3f d46e b1b8 1c87 a83f
000006f0: 3424 6c05 8880 693f 25e1 0743 c2cd 62bf
00000700: 54ff cd92 d1fb d13f 0ed0 5f4f e2e4 843f
00000710: c14c 1230 6013 91bf f22d 2399 f568 a93f
00000720: c24c 4813 ce4e dbbf 8349 81ba 51a6 b4bf
00000730: 2cdc 212d bfad d23f c239 4a9a 56b1 d33f
00000740: f2da b94b 3de1 d43f 6c6e 1813 f95e e33f
00000750: ef95 e3a1 2ddb b1bf 8f30 9ea9 425f b3bf
00000760: 8f41 9604 c013 b5bf eab9 a154 6161 a43f
00000770: bbb3 ea82 314e c2bf 74ee fcf0 9a14 d1bf
00000780: 862e 8000 1303 b0bf 03bd d819 645b e03f
00000790: a9c3 dac5 b101 dd3f 1c31 3667 0fcc d83f
000007a0: 1287 4f0d ecdd e33f dd49 f5a3 69c5 e23f
000007b0: ba9b df56 4141 d3bf f029 dedf 3748 c6bf
000007c0: a05d a99b c7f1 9fbf 0a46 f6d6 5e62 b03f
000007d0: e795 53af db96 84bf 7c9f ad3b ca49 c43f
000007e0: ba52 3948 4693 b03f 350a a2e9 88c1 aebf
000007f0: a491 3895 0eff d93f b49a 9807 d308 d13f
0.4335305494200792 0.01568646710170275 0.02192421215908387 -0.2520657886024111 0.04280093483591745 0.17166663680324482 0.05961244614700561 -0.2992713223214394
-0.26506708267683526 -0.0679877157325534 0.4129054792435834 0.08791574972374094 0.383487628475418 0.24192844364113886 0.01857114029407366 0.024589707418391653
-0.3574935969122958 0.10455745560418038 0.01065928822237491 0.00795374971678905 -0.5651952874230044 -0.09453254283029529 -0.12725379765448488 -0.19494075500226643
0.2786166598943455 0.504399207246045 0.023712783763327454 0.13116553177108095 0.2957330016615368 0.3282502295612073 0.003761327333977718 -0.09934426099742726
0.1049555716709292 -0.8366770481742934 0.013836208265646594 -0.20527971963770164 -0.1428062354217489 0.14472143390546224 0.1949034121924607 -0.13279688206909457
-0.004270621017627514 -0.005005086341383888 0.26115797153412496 -0.03468566084117798 0.00418856949031352 -0.0006223744752211812 -0.04286165569927903 0.26755441657399087
0.42936272407263926 0.25931214006425407 0.3803811116044312 0.3721885581640098 -0.26242390431700585 -0.015318881370313344 -0.012179979997346185 -0.09432978632240074
0.045463304031895434 0.1997703561048607 -0.10701217551368299 -0.08723064969035414 0.42462894138860213 0.18977059210290353 -0.6892346785527338 -0.6848268969975494
0.9905555324135312 0.04822049312012878 0.02039916172752224 0.023126011151352117 0.3265411471308525 0.00041408358943713873 -0.0035712010839603664 0.08042380518267814
0.29735712428449224 0.28780649320667784 0.3410083718871339 0.35386904026644456 0.41868125064553635 0.2619769232005695 -0.1005742573131115 -0.021429754538739625
-0.014996131077280005 -0.1354279938495271 -0.003480638133596977 0.16177602191160825 0.2534642077964597 0.19633400644981325 0.02409120234626432 0.220113400789714
0.13642339499386558 -0.19300267023896514 0.45475650471704737 0.6062570369041712 0.005729038822559561 0.007241292009036817 0.020345062184299025 -9.92201030051518e-05
-0.30253566205736476 0.003316524993809427 -0.07753837102880316 -0.07500312472185156 -0.04312967545359042 -0.07975895031321203 0.009823173038472695 0.21882550071620122
0.0974682165599481 0.04984945197954742 0.14470114292978237 -0.2726422916080745 -0.24320923238157321 0.01736981776441848 0.3065259022322145 0.395439901516232
0.017926687585601824 0.349048958821726 -0.040711519967027675 0.15065336978170307 -0.06684708296874005 -0.12294032332911212 -0.06677644869936714 -0.09669578136182364
-0.10196231007945533 -0.2817435362397288 0.08098692200326478 -0.03660938625930759 -0.4568389537337689 0.19612722933867657 0.0635087189087555 0.036192013944432555
0.36374887844151416 0.9709705800885488 0.285988388241746 -0.027567353627642094 -0.046112407214593656 0.31344812370499026 -0.13100583934860857 0.00520694256132524
0.016041202251496148 -0.01988840200200529 -0.04581757516299755 0.46201559220728494 -0.44839852732907326 0.5445051381759632 0.5687273128863678 1.1386821800020777
0.001949566488292605 0.005599782931704052 -0.0199022126231346 0.011782833337698655 0.011052546494867279 0.004509079244781892 0.3562696746345778 0.3965104136870864
0.39880802766136625 0.37841090996062493 0.3520461790645348 0.34655807455579835 -0.5920559755035255 -0.01886538725438688 -0.020617139141943838 0.09695277225003182
-0.05930532318529835 -0.02880936627699836 0.006490234662138965 -0.5139532954566213 0.1817709101487188 0.3319267818989534 0.13986498178234705 0.2055406282796513
0.22584043929102213 0.7292928176814781 0.012763770257369368 0.023010311793252722 0.26363403182857365 0.01982134309295465 -0.03603746262659154 0.026696890899262422
0.018229425486343747 -0.6074283324429947 -0.9824789860057427 -0.8824683844324315 -0.19642671471869294 0.020082965157305996 0.06269664610712807 0.11347490267291653
0.1361165498475437 -0.3925966218254624 0.2886637980944405 -0.044520769618741775 0.05698865461350315 0.37527884122665295 0.15119998861846107 0.35382977370404883
0.37354585904550286 0.28881308417182544 -1.0138172638317515 -0.05542890425205986 -0.07072960978245488 -0.09274818731772783 0.127738457796556 -0.31631242449526664
0.1700755949890998 -0.02777362689851123 0.14125045932603028 -0.1460374217993215 0.4272849772599567 0.5670961671415836 0.4735128607218196 0.7296725851256497
-0.07790288621559163 -0.007395639430315946 -0.01413803065055972 0.22753371583001158 -0.06348937947137481 -0.02329091029771707 0.030224548233486453 -0.4281860511885461
-0.09305775520474607 0.13005135063516823 0.1461261971610022 0.1649665722177064 0.47893362941800716 0.04790582422785197 0.0031130463279436475 -0.0022953790833036996
0.2809947904242922 0.010202186629591405 -0.016675475057650106 0.049628901427777 -0.4266848743729491 -0.08066283038468751 0.2918546620125564 0.30769887034776044
0.32624752421490577 0.6053433773954118 -0.06975064470642399 -0.07567230835974413 -0.08233261215196407 0.03980545194723446 -0.14301127331182592 -0.26688264402375883
-0.06254690897201884 0.5111561302964279 0.45322841951115805 0.38745484427706045 0.6208400974248625 0.5865982248599796 -0.3008578632711153 -0.174078926382506
-0.03119575393278995 0.06400101421447615 -0.010053364074745509 0.15850189126944858 0.06474723113326322 -0.060070303458833164 0.40619244167671753 0.2661635946446197

Linear1.bias f8 [64]
00000000: e2b3 0ca4 031a 993f 5ef7 befc a38a 973f
00000010: e7c4 5f66 8a9e eabf 97c4 7374 51f0 d93f
00000020: 85bf 191a aacc ca3f a7ba 845e d941 d33f
00000030: 7f1f 4287 3b36 c23f a81d 9293 5f55 a63f
00000040: 2eb3 fb59 e241 cc3f 7595 ba06 67c9 b43f
00000050: eb97 ac35 168b c13f 90c8 da46 9cc8 d03f
00000060: a9c1 bf72 77df da3f 0147 187b 1139 e9bf
00000070: 4dec 93e3 55a3 a13f f8b7 a225 d425 ca3f
00000080: 6834 a06a e3ce d33f 31d9 9ef0 eec3 c93f
00000090: 4b68 dcec 90ab d23f 0471 b008 7062 de3f
000000a0: 098c bf17 d060 cc3f 3d9d b61a 35a2 e2bf
000000b0: 9a0b f301 ca17 a83f 7dd2 badb 81f3 de3f
000000c0: 1726 6f92 4e13 c6bf c7f7 86ea fa57 f0bf
000000d0: 21ed 26b8 9f40 82bf f4da 5edb e390 dd3f
000000e0: 2a55 3959 6d53 8ebf da68 e583 2226 b9bf
000000f0: cb95 62cc 3a46 dabf a4f3 4c1c be85 c9bf
00000100: 1386 fc78 ccf4 d53f 537d be3e a5ff d4bf
00000110: 6342 0439 f8ca c73f f8cd 46b2 3ee3 de3f
00000120: 58f2 bca0 0d47 c53f 2041 e93d dd9a e0bf
00000130: 2fad 51b4 911b d53f 9cd1 c7b5 3172 dbbf
00000140: e51e 85d3 a11c e23f a1f2 8bcd 12f5 bc3f
00000150: 67c2 c427 8a4b b6bf e024 a699 452d cd3f
00000160: ce9e 0820 a58f cdbf 3359 f352 1d82 cbbf
00000170: e752 6cac 223f c93f d680 fd96 6511 ba3f
00000180: f15f 9fc5 0f42 cebf dfbf 01bf 8aff d83f
00000190: 54fd f9de ec69 bfbf 4da2 1920 6e28 c0bf
000001a0: f921 8210 e907 d43f fca6 1b70 6002 d1bf
000001b0: 4233 b7b7 9aaf babf d0cd 3868 f8a3 e13f
000001c0: 7be2 ce88 cc2c dc3f be7a 0807 5202 ccbf
000001d0: d3fd c47d 8240 b7bf 2fe1 4b13 0fa2 dc3f
000001e0: 7e71 3eda 35a4 8c3f 0e6b 9c41 c842 ccbf
000001f0: 8bb1 9f73 11c0 d13f 3721 7219 abef cd3f
0.024513298881334473 0.022989809323682102 -0.8318531035894495 0.40529285785948715 0.20937086367075267 0.30089411001510274 0.14228004555138438 0.04362009693528118
0.22076062577925754 0.08119815744665522 0.13705709095773896 0.2622442905368496 0.4198893185230426 -0.7882163433261838 0.034449275999542374 0.20427944028546086
0.3095024625079703 0.2012919115929406 0.29172156458810566 0.4747581562858303 0.22170449409085816 -0.5823007127518519 0.0470564963702806 0.4836125036047532
-0.17246420049768638 -1.0214795266360726 -0.008912322814345121 0.4619683878221814 -0.014807562146567383 -0.09823814125175848 -0.4105364795635437 -0.19939400083413006
0.34306632819252164 -0.3281033623442983 0.18588164123549963 0.4826199284536581 0.1662308726171371 -0.5189043244554661 0.3298076878479205 -0.4288448596191985
0.5659951335191776 0.11311452406148216 -0.08709014388001322 0.22794408800499522 -0.23094619812149236 -0.21490828085252076 0.19723924082850106 0.10182795463834124
-0.23639104032076788 0.3905970444966424 -0.12271004146349657 -0.12623383109463973 0.3129828129972619 -0.2657700629048205 -0.10424200997586033 0.5512659106811331
0.440234311677649 -0.21882081359304623 -0.09082809038681398 0.4473912895623639 0.013985081408286911 -0.22078803256666685 0.2773479107989025 0.23387659780952116

Linear2.weight f8 [64, 64]
00000000: 63b5 28db 9fc4 bfbf 471e 9f3a d9c2 babf
00000010: e749 cbd8 53fe e63f eff0 e1ec 0427 cc3f
00000020: 6ab6 b61a 732b b5bf 3c6a c3c3 f9e8 c53f
00000030: 10ef 3a6a 42aa bebf 0dd5 2520 91cb c93f
00000040: fdb5 3856 004e b1bf e73b 003c 4e06 7dbf
00000050: ddc4 09da b056 a1bf f879 024e 0ca9 b73f
00000060: 679b f0e9 c084 953f 09e0 ac2d 0a7b e13f
00000070: 1fb4 8d19 2ffc 903f 0f65 aaf4 2e42 c6bf
00000080: 8ff4 1db9 c183 ce3f 8643 7746 3bcd a13f
00000090: 9bc1 1dcd 682a bebf 789b 0155 b0c6 a0bf
000000a0: 0f96 83e4 26ea 883f 2d24 b60e 4601 ee3f
000000b0: ced6 0d4f 6a10 b23f 7cb1 8542 a9ac c6bf
000000c0: 731c 05b5 1ad3 a03f f1bc 3987 68f9 e93f
000000d0: 9306 b73a 5a9b a93f 0be2 1519 cbcf a8bf
000000e0: 2279 2793 b6df a8bf bf5b aa7a d8ef d2bf
000000f0: ab1a 4921 fe36 debf ade8 853e 1d08 d03f
00000100: a798 aab1 b077 c13f 3f13 fe2a 4bc3 ca3f
00000110: 428f 725d 35ca afbf 801c 2110 c978 ca3f
00000120: 71e4 ae3a d0cc be3f cab7 d926 20a1 babf
00000130: d71f 8a08 eecf 9fbf f6a8 99f8 7011 a6bf
00000140: 4c95 e582 60d5 99bf 7fbd eaa8 7f5f a13f
00000150: 05c2 3023 796b af3f d062 bcee d245 b6bf
00000160: 998c 3b38 3422 d8bf 3fe5 d2c3 6b3f 86bf
00000170: ed85 5425 d8aa d83f 27fd bb1d 74b8 b63f
00000180: 5f7c e0fc 628c d33f 2746 2575 4e6a c43f
00000190: 1dcf f1b7 3c3e afbf 616d 93dd 5876 c03f
000001a0: 5225 9ea3 87aa cbbf 5ae7 8f5b 4106 c1bf
000001b0: e089 fc5f c9bb c43f 47bd ce35 eb18 db3f
000001c0: ba47 9225 6cb3 d33f a793 b2c9 df6b 973f
000001d0: fe99 3d92 3d44 7b3f 363c 81c2 894b cd3f
000001e0: 8064 308b 11c4 b3bf 7712 31a3 3090 a5bf
000001f0: c342 608b 016e cf3f 2258 2e1f 7590 95bf
00000200: 0908 bce6 9700 b03f 04e7 8dad 6723 a9bf
00000210: 266b c405 f5dc e43f 2e26 f8ce c63a ce3f
00000220: 76c6 d7ff fdfe 93bf 35c7 9c7f 84ea ce3f
00000230: 0d7e 5b48 d562 acbf 0181 ab17 33bf b43f
00000240: 595f 85cc 9ee8 903f b06e d387 a3ad d0bf
00000250: 8c8c 8536 67e9 d63f 41e6 6dfb 9f62 bebf
00000260: 7dab 955c 6824 80bf bd17 8f91 002c f33f
00000270: 2c34 4007 d125 92bf 3418 0b50 f52d d1bf
00000280: 032e 74c1 4438 a13f 4148 3cab b9bd cc3f
00000290: 3d17 fe84 b857 c8bf e4b9 11bb 46f0 c5bf
000002a0: a724 a541 9120 a13f 9cfe 46e8 39a2 e33f
000002b0: db96 ac6d 1b78 843f 05be 3479 513d b5bf
000002c0: c4c3 a982 8301 8fbf 708e e7c1 99fc e63f
000002d0: c8bc 475d f794 a1bf 3f3a b974 38db c6bf
000002e0: ef13 6bba aa62 b13f 5c21 5dae 5639 d23f
000002f0: 63f2 c1c1 09cf 8a3f 025d eed1 96d2 953f
00000300: c5ae dd0f a915 ca3f c3f0 b8db 2323 c13f
00000310: 0972 ff1e 073f d03f 3c0f 7a5a 4a0c ca3f
00000320: ac4f 577c f569 c53f 376f 6110 476f cebf
00000330: 224e 6e8f 83fc c4bf 5304 8f77 1141 dbbf
00000340: 3665 6205 b1aa bfbf 5dfd 0a1b 581e 7fbf
00000350: d6cd 1bbc cbca c23f 04e2 cd8a ec55 8f3f
00000360: 4733 66b5 1360 bb3f 04f1 3d8a a5a3 c4bf
00000370: 1a67 d174 e1b5 d53f 14a4 63cf 4f09 d03f
00000380: 9292 ce50 01bf c33f 0b49 1855 9cd0 ca3f
00000390: 984f a01f 7662 c5bf 582a 0dad 3218 b53f
000003a0: 26c9 5f0e df74 ac3f f4e4 15e1 4b4d 9e3f
000003b0: 4e3d 109d fd3b 943f 16fc fc4a bb6f d43f
000003c0: 9458 7966 44af d53f cf5b b255 5d26 c2bf
000003d0: a133 c545 db3d bebf 77a2 d8cd 9e99 d23f
000003e0: 70d2 89d9 774c bfbf 41cc ca01 2675 babf
000003f0: 488b 731a 7416 d63f 72c3 f597 bb29 97bf
00000400: 8c07 0318 0fd6 95bf 6cc5 8edf 8dd4 c9bf
00000410: 792a 5de4 7469 cf3f 5c3f bae8 3d35 c53f
00000420: efe3 e83c 148b bd3f 9f01 5757 14b3 b53f
00000430: e587 ed20 1f9f b53f 2d36 aac5 5548 be3f
00000440: b626 5a81 72ec b8bf 048c c012 8134 873f
00000450: a994 a95a 57c0 ab3f ff00 1e25 4eae a8bf
00000460: 33c8 e390 47e8 abbf 4a50 51d2 5818 ec3f
00000470: 1545 594e 8e68 b3bf e469 da61 efed a0bf
00000480: 4624 841c 3528 ad3f 5977 1e6e 0384 c53f
00000490: ed75 f46f a762 3dbf 653f 9970 5615 acbf
000004a0: 0248 1f5f 50a6 c03f bedc 9d15 f3b3 d13f
000004b0: 00a7 8d55 48a9 9abf 07a7 644d 3ed9 91bf
000004c0: 176e 80b5 06bd 753f 940c e700 156a de3f
000004d0: dcb5 d4bc 2b94 b03f 3f70 bd63 247a b93f
000004e0: 6786 a301 32aa c23f 7c0b bb17 861b 72bf
000004f0: 03dd 9869 32a4 bc3f 2961 0a37 54b7 d13f
00000500: 37e0 1c3d cf95 b23f 03e8 3bcc 2c8a c33f
00000510: 41a0 144a cb3c ac3f 0e73 274f 8319 d53f
00000520: 1e5c 0b34 0157 c83f 65e4 1263 da5d cabf
00000530: e429 e568 8fa8 a4bf 75ff a697 5175 b2bf
00000540: e24b e51d 1667 a73f 7996 fba8 84a3 b5bf
00000550: fb21 b0e3 3f97 d13f 2f02 cdf3 38a5 a43f
00000560: b34c 024d 453d b8bf df71 5b25 0e60 c0bf
00000570: 79e4 ab4f fc4f ca3f f6f9 ba58 088f a73f
00000580: 8ef0 839f b206 c9bf 690e 39a8 ff00 ce3f
00000590: 8d75 09b0 5bb7 acbf f2d1 1a9b b274 ac3f
000005a0: e935 3f58 b2a0 a3bf 330a ef4e 985e c13f
000005b0: 31a7 549a 7ada abbf 5b87 4e38 88b2 d63f
000005c0: 5199 dfee 7d1e be3f 134e 855c b13c af3f
000005d0: 4692 2a51 a5aa b5bf 869a 5df9 87ca cc3f
000005e0: 3320 13e0 2441 9b3f 2703 d8ad cb63 b3bf
000005f0: 0a2c 15a0 26d5 c83f 2184 940b a50e d03f
00000600: 5db4 3acc c3cb 92bf f6a3 da92 bf09 c1bf
00000610: a211 24bc f633 a93f 28d1 8893 34da c83f
00000620: a38f 91cd 2916 87bf 3165 ff4e a991 d23f
00000630: 55b0 1c82 5f19 c0bf 9d12 dc26 9aac c23f
00000640: ca16 ed5a 1b6e c23f a27f 8d11 52b3 673f
00000650: 01c8 6411 dbde c33f f784 055c 3fe3 a3bf
00000660: 920f 44b7 ec26 7fbf 19a4 0f4b a32f ee3f
00000670: e025 361d dc26 bebf 4101 f14a d433 95bf
00000680: de07 e81f 14de 623f 358a 72af 5c26 b53f
00000690: c0d5 947b c9a7 a23f 0c9a 9fec ecb8 a8bf
000006a0: e2a2 c14e 3122 b6bf 7250 8452 cba5 d1bf
000006b0: 3350 6d37 bfe7 babf ab84 bd2c 9441 a8bf
000006c0: 6870 45b0 cbd8 c23f 0857 6a84 3d2a cd3f
000006d0: 54de 8e16 1a3f abbf 468f d8fc 98d3 c23f
000006e0: cc7a 54e7 ba8e a7bf 1618 9202 bf8e c03f
000006f0: 958b 040b e9f9 cc3f cd77 d378 559c b03f
00000700: 2462 21ed 4944 953f c45b 7b9d 525f c7bf
00000710: e79c 9c83 909d b23f 2edd 419c 6c3d d13f
00000720: 91e7 4103 1ee0 c63f 8b07 e686 ca30 cabf
00000730: 7985 51fc 95b6 bd3f 4b3d 884f ac81 d0bf
00000740: 65b5 309f 20af b3bf aceb 460f 2638 b5bf
00000750: 2c15 bb09 aecb c63f a3cb c0f3 dfa2 773f
00000760: 7062 4e72 115f 8fbf 2ce2 f20e ec30 a73f
00000770: dae7 386c 9016 d13f 51c9 013a 36c6 af3f
00000780: d03d 28df 4656 c9bf 56ef 8a17 f0a0 d13f
00000790: adb7 67fb 9d6c 92bf 301e fc7b 3969 bebf
000007a0: 7c85 c24c b2d3 a63f aa42 2697 5302 d23f
000007b0: ff4d c6f4 0d9e c23f fbb4 7d43 4613 d53f
000007c0: 5bdf abe8 d60d ca3f 4939 952c 9418 80bf
000007d0: 8160 e586 8fb3 d5bf 517a 71b2 ee75 cb3f
000007e0: b6fe 8de1 c1b3 b4bf 0044 8b4a 8a4a 6ebf
000007f0: 3749 2b4f 32b5 cc3f 3303 b109 2045 c13f
-0.12409400082170445 -0.10453565293493582 0.7185458406696029 0.21994077269108156 -0.0826942386836095 0.17117235239750694 -0.11978545278082842 0.20152486867633748
-0.06759645562188861 -0.007086091616669932 -0.03386452352141032 0.09242321877034232 0.02101422717910442 0.5462695018859459 0.0165870055529248 -0.1738947577148697
0.23839589632908484 0.03476891741923453 -0.11783461578102676 -0.032765875221961005 0.012165359352773767 0.9376554763158588 0.07056297712355361 -0.17714420078426574
0.032860598179973353 0.8116953507541479 0.05001337019667775 -0.048460337459747725 -0.04858179613414594 -0.29588901499795023 -0.4721064877561882 0.2504952536179513
0.13646515536419665 0.20908488845102544 -0.06208960309711965 0.20681107795300946 0.12031270439810428 -0.10402108143327307 -0.031066626807415645 -0.043101816508014965
-0.025228031148249827 0.03393172203993355 0.061366830392561446 -0.08700292900574458 -0.3770876454493162 -0.010863153375214039 0.3854275097420146 0.0887520382493575
0.30544352240571543 0.15949421615600665 -0.061021707014246675 0.1286116678155436 -0.2161416577257947 -0.13300339670950728 0.161980792873762 0.42339592222829875
0.30782607716639243 0.022872444806711602 0.006656876099305096 0.22886774060541065 -0.07721051834268344 -0.04211570732198749 0.24554461770505584 -0.021058874157084635
0.06250905402342267 -0.0490982436521801 0.6519723045961185 0.2361687193481869 -0.019527405491265935 0.241531908331632 -0.05544153698224017 0.08104247405890776
0.01651237605378184 -0.2605980707573776 0.35799579929716496 -0.11869239700708879 -0.007881942105731227 1.1982427297493665 -0.01772238356356952 -0.26843006912929757
0.0336324201726619 0.22453995572192478 -0.1901770257356307 -0.17139515051117293 0.033451594603840555 0.6135530029932457 0.009994711193552266 -0.082966892329516
-0.015139605927488982 0.7183350360105134 -0.034339647423502095 -0.17856507968322607 0.06791178752162329 0.2847496702929868 0.013090206361306039 0.021311146319559
0.20378602289871686 0.13388488987573596 0.2538469126427861 0.20350007455646757 0.16729610987988275 -0.2377709226592459 -0.16395611289463924 -0.4258464496197735
-0.12369829541639352 -0.0075972978235648555 0.1468138378619261 0.015300605760544712 0.10693476847354787 -0.1612440991410794 0.33922611625676924 0.25056834462026356
0.1542665142598208 0.2094912925245541 -0.16706730407952075 0.08240048146141399 0.05557915735689027 0.029591737378244568 0.01976009627474911 0.31931955645626553
0.3388224602434857 -0.1417957943383201 -0.1181313557946866 0.29062624075098803 -0.12226056157107634 -0.1033500437140882 0.3451204546274096 -0.022620135450270813
-0.021324382629934344 -0.201799139174493 0.2454057803209542 0.16568731177948848 0.11540342795423418 0.0847637856704808 0.08445925287153917 0.11829124522974928
-0.09735789926539948 0.011330612549562254 0.05420182210654307 -0.04820484355059484 -0.05450652736352914 0.8779720409170377 -0.07581414616403877 -0.03306530065056615
0.056947383624056644 0.16809122921852795 -0.00044838512254038906 -0.05485029339308659 0.13007549900663667 0.27660824881554535 -0.026036386701355774 -0.01743028018351025
0.005307222563739631 0.475224734193213 0.06476090774659532 0.09951999125536391 0.14581894950883909 -0.004420779990769282 0.11188044622473474 0.27681451201489665
0.07259841196071269 0.15265426609386176 0.05515132216743313 0.3296821854581119 0.1901551727412149 -0.20598916852557916 -0.040348512224756466 -0.07210264160585018
0.04570836176812755 -0.08452633977466374 0.274856541015225 0.04032304740986025 -0.09468491678335304 -0.12793137382585848 0.20556596651275408 0.0460131271661232
-0.19551689900243158 0.2344054767037165 -0.05608641170395421 0.05557783263558126 -0.03833539321167818 0.13569930891215307 -0.05440123685759913 0.35464673517900785
0.11765276986952712 0.061009924453767315 -0.08463509780501352 0.22493076015526386 0.026615692306933347 -0.07574151033624031 0.1940048486379456 0.2508938420378986
-0.01835542615906537 -0.13310999556168185 0.04922457739488385 0.19415909961538458 -0.011272741876559971 0.2901404639684016 -0.1257743249237843 0.14589239976352966
0.14398519458534614 0.002893123903433507 0.15523851727772356 -0.03884313581762371 -0.007605480834403171 0.9433151689564766 -0.11778045380756152 -0.020705525468885048
0.0023031609591734744 0.08261660846123038 0.036436363540285566 -0.04828586948842792 -0.08645923779262035 -0.27574427660261513 -0.10509867766569485 -0.047375326596701704
0.14724107844347434 0.2278515717086338 -0.05321580434195697 0.14708244653695085 -0.04601081918575786 0.12935626626512037 0.22637665784813224 0.06488546562056215
0.020768313501635785 -0.182596518416828 0.07271674359491308 0.2693740392637264 0.17871451529555007 -0.20461398684352292 0.116067289448912 -0.257914617221975
-0.07689098249894284 -0.08288801072096302 0.17809081530700988 0.005770563901068923 -0.015318046856735296 0.04529512102584862 0.2670022065027503 0.06205911119549746
-0.1979454602846844 0.27544786738484583 -0.01799246642070045 -0.11879309918378378 0.04458386599550132 0.28139199982346474 0.14544844104658236 0.32930142012521885
0.20354734764964175 -0.007859380350649163 -0.33908451245725507 0.21453651154566214 -0.08086787945466764 -0.0036976529121166557 0.224279678971081 0.13492203210082607

Linear2.bias f8 [64]
00000000: 7574 a667 6b52 c23f 61b0 6811 9134 a83f
00000010: 4169 046b 8cc7 cb3f 506e c469 e031 c13f
00000020: 4aa7 fa73 84fb c33f 47fc 4815 2752 c53f
00000030: 0318 1aef 8b0a b9bf dbcd db2e d6c9 d7bf
00000040: 90ba 03d6 d792 b3bf 7f28 dffc e86e 97bf
00000050: 1dd1 b217 f752 cc3f 0a75 d5d6 c114 8dbf
00000060: 23f0 66a1 6fd0 ae3f 7551 1988 f6d7 bc3f
00000070: 1612 5367 f2e7 d83f 27a7 ee48 620e b7bf
00000080: 532c 424b 0f92 c23f 18d9 6366 13eb c43f
00000090: 3fae f855 d082 a63f 2274 f481 bb6b c13f
000000a0: 6001 c1b3 57e6 d53f b603 b857 4cdc a83f
000000b0: 5328 2220 989e c63f 2993 98c2 ac49 c93f
000000c0: c243 0ad2 6f13 c53f 7a4f 2f6b 08b9 c73f
000000d0: 3cb0 6677 fe8a bb3f ba39 a94d 1402 98bf
000000e0: 1df4 03b9 015a 853f a0d7 3019 49d4 b7bf
000000f0: a7b7 729b e3fb 9b3f 9bdc 7e52 d5e0 c93f
00000100: 44bd 0dda 7f8a c03f d962 d589 b620 a4bf
00000110: 9fba db4e d856 a7bf 6b27 c3af ba33 c0bf
00000120: f7af 936b 4bfd cfbf 9de1 259a a9ff 9bbf
00000130: 4a4e 460a a6e6 b23f 9918 3fe7 d173 82bf
00000140: 67b7 1843 9b97 863f df6d 282e 4e55 c1bf
00000150: 72f2 703e befa d43f bbb3 0c72 b56c c03f
00000160: 147d f3b6 a478 c93f 9cc6 5ed2 abff c2bf
00000170: 6858 bb13 c999 54bf c686 d90d cfbe cc3f
00000180: e1c8 5a9d 8316 bc3f 111b 75dc ca85 c03f
00000190: f0fc d5eb 9053 b43f 19be 9cfc ebb9 b13f
000001a0: 7064 9d05 508e bc3f 3526 731a 2c17 babf
000001b0: ee45 edc9 a926 993f 8a2c 1417 7fa7 623f
000001c0: 89e5 c1c9 bd28 cc3f 5c3d 1778 7515 a3bf
000001d0: 53f4 c2b9 aa57 c03f b9b0 6fd4 5784 ce3f
000001e0: e89e 3938 3ca4 623f adbd abe7 7eea b83f
000001f0: 6202 7a7b 0179 933f eaa9 62cf 5259 c63f
0.14314024506612424 0.04727605187903872 0.21702723718119368 0.13433461346072528 0.15611320174257975 0.1665696004801893 -0.09781717860650478 -0.3716941316226589
-0.07645939803090074 -0.02288402598768657 0.2212818971362446 -0.014199747437198446 0.06018399090996265 0.11267033407904654 0.389156914618327 -0.09006323128292291
0.14508238959055805 0.16342394351495027 0.04396678018050836 0.13610023351148565 0.34218399576277214 0.04855574198518957 0.17671491211905507 0.1975608778167495
0.1646556640230568 0.18533425553925637 0.10758963027063911 -0.02344543193822244 0.010425580462191825 -0.0930829702855065 0.027328068125534035 0.20217386749366004
0.12922666690017526 -0.039312080693610425 -0.04558444941163952 -0.12657865125793974 -0.2499174380567408 -0.027342462571569127 0.07383191824765692 -0.009009971494276224
0.011031353936313782 -0.13541581395916943 0.3278041467454279 0.12831752842740038 0.19899424489174378 -0.14842746517165473 -0.0012573684352239715 0.22457302261596207
0.10971853820481982 0.12908302082561154 0.0794001174708574 0.06924319188396345 0.11154651772575774 -0.10191608091113198 0.024561551046025025 0.0022771341542742784
0.21999332763133975 -0.037273093137282415 0.12767538137805676 0.23841379044404734 0.0022755790867455723 0.09732812076594284 0.019016287957585816 0.1746009361862229

Linear3.weight f8 [64, 64]
00000000: 1e0a 0165 40be cb3f 67f7 fefe 4530 bc3f
00000010: 6890 322b 375d c03f 0529 252c a189 bc3f
00000020: d720 32e1 4ae6 b93f 2471 b75a 9994 af3f
00000030: c505 2d32 2dcf d03f fb32 3a33 ce8b e6bf
00000040: f60c 7432 f564 ca3f 821a 244b 5a1e cb3f
00000050: ed4b 29bf 7dd2 a63f 510e 93c3 f04a bd3f
00000060: 1bd8 e0f1 0023 af3f 6bdd 4a3d e40f c43f
00000070: e875 c18c 25a1 d83f d88e 28da 9578 e1bf
00000080: 3afe fa7e 1c84 bd3f f4d8 293b d6ba bd3f
00000090: a4ce 2945 f778 d63f cb5b 56a7 0c27 ce3f
000000a0: 9f0f 6e40 9ba3 c63f c2ee 6197 fc28 d73f
000000b0: 6d5a 26f4 ab35 8d3f 3077 c8fd bddf cb3f
000000c0: c747 e237 f796 b43f f799 bc5a 3010 c33f
000000d0: 1a24 9a71 acc1 963f ed8a b7e0 47b9 ca3f
000000e0: 1ad8 8941 c9b6 d83f 22d9 962c 133f db3f
000000f0: 02b9 ff3d b029 c23f 3038 3608 1609 c53f
00000100: a41d 9c32 6199 c03f 04dc 6d1a c07b cd3f
00000110: b622 9d08 24a2 c53f abc2 13b6 d890 f33f
00000120: c64a 60cb 8530 f13f 5c53 2577 fd59 b93f
00000130: b92e 520d 6017 9f3f 6d2c 0619 0b5d e23f
00000140: 3415 aff8 0546 d83f d00a fbc5 53de c73f
00000150: e5bd 3130 6236 d63f 4fd7 d762 e85a 943f
00000160: 8936 58c2 53ce 40bf c3c5 04bf a0c1 de3f
00000170: afea 2fb9 4069 d73f ec8d 7f71 ad8e 89bf
00000180: 8ee1 6be8 5254 c43f 3aac 2183 cdb3 bf3f
00000190: 0791 0a87 92c9 ec3f 7c9e 694d c258 c13f
000001a0: 5997 f6b2 b67a b93f c66d 144a 14ca c13f
000001b0: f30b 89f4 6f9b d5bf 1d32 851a c95b e33f
000001c0: c8ad 45ba 92f4 cc3f 1c75 7c91 5e8a a63f
000001d0: 72d0 da68 4330 c13f a441 5882 aa08 c13f
000001e0: b632 bfa1 b862 d53f 6a03 dec5 02a9 bb3f
000001f0: 9ee5 d38d 23ac ce3f bc91 32c6 7e90 dd3f
00000200: bd48 cd70 64b3 b43f dadf 3116 e5f0 d33f
00000210: c32e cc4d 7fdd c33f 3204 a812 fd43 c63f
00000220: e34a 2219 ecad c53f 1f25 b1c6 a614 b53f
00000230: 489f 50d4 7fd7 be3f 3a4a 16b7 74c1 e1bf
00000240: 5c12 842e 505a 87bf b396 8e81 6c89 cf3f
00000250: 12d5 41b1 74cc c03f 3c9d c693 7ed4 a13f
00000260: efd1 0f8f 4ffd c83f d37c acc6 1b5e b03f
00000270: a323 7240 d78b d53f ef1c 91e7 8f94 e0bf
00000280: 2886 37a6 f5fb c83f ef36 4136 3222 cc3f
00000290: 147f 57a4 40a5 d03f f982 ce5e fc2f cf3f
000002a0: 751a f57d bb0e cc3f f22c aa1d 8805 e03f
000002b0: 0cd2 8e0e 360b a63f e75a 2c26 73bc ae3f
000002c0: 65bb 6e4b 44ff b23f 29ce 605b 7a5e b13f
000002d0: 65f7 b18e 4622 c33f b4b7 61eb f278 c83f
000002e0: dc62 9ae1 6a82 df3f c3db c5ac 7819 de3f
000002f0: b18f 05ab 7a6b c63f ee2d ad8a 808d b33f
00000300: 6889 a8cb ebf0 843f d009 04dc c165 d53f
00000310: f120 7c50 eba2 c53f 3eff 918f eab1 f13f
00000320: 15e6 51f6 6bcd ee3f f6cb c459 2264 c73f
00000330: d3d7 7dc1 057b 8abf e4a3 5cc6 01b6 d93f
00000340: dc68 d100 e3b7 d63f 0622 59a9 3451 d43f
00000350: c67e d923 9d26 d83f 3dd7 d11d 2641 c43f
00000360: 3029 b38e aa17 703f 398a d084 8e02 de3f
00000370: 6f6d 68db bb4f ce3f f012 6ea7 e0ca bc3f
00000380: 84a7 5204 4a7d 683f 5031 2fb3 549d b33f
00000390: 65b6 6f62 abd3 e93f 9f3c df15 6f70 d23f
000003a0: 4f01 2145 d940 c53f e696 375a 8ea5 c73f
000003b0: db09 efeb df91 dbbf e911 b2b0 3ca1 e63f
000003c0: f76e 97e4 6484 893f 7438 7eb7 ff21 c33f
000003d0: 5f88 d33a 2b67 c63f fe66 3315 3660 b83f
000003e0: 7bee f4c9 a008 d93f dd10 6d27 61db cb3f
000003f0: aa62 edad 29e6 cd3f f31e 4057 d06a d73f
00000400: 2caa 99f3 e1a9 a33f 1662 4283 2bf3 c93f
00000410: ff33 9eab 2694 c33f 7769 2ee6 c539 afbf
00000420: 1394 3a1d e710 a43f 86f6 2d90 9094 ac3f
00000430: e251 eb0c 2cad c53f b860 f487 abbf e5bf
00000440: 6acc 0a63 4208 a1bf b51f 3a47 7fc9 6dbf
00000450: 0937 2799 ac8c 71bf c13c 60b0 5ec2 81bf
00000460: 771a bc2f a318 b63f 65c6 e80b 6ae5 c43f
00000470: 4a8c 4c74 c36f d93f cac8 01d7 a354 e1bf
00000480: 1bd8 15fd c922 b83f 3d18 dd72 4fc9 c53f
00000490: f160 d763 2d29 cd3f 6961 402f c83f bc3f
000004a0: 1c79 ace7 74fc c53f b65a 36e5 497f dc3f
000004b0: 0de0 f3f8 0a4e ae3f 8937 4f48 b6cb be3f
000004c0: 13f9 2e5d b875 963f 63a0 cfaa 4e5b c83f
000004d0: 284b 8d32 74bd af3f d0ed 4ecd 00d2 b13f
000004e0: caf8 5b55 80db d33f 62c6 c218 65ee e03f
000004f0: 6250 8b9e e3f4 cd3f 354e f072 544b c73f
00000500: 8db3 5104 c39b c53f 479c 4a0b 7503 d33f
00000510: 64ad 6850 ee32 763f c7d6 ddeb 9544 f43f
00000520: 70ca 519e d7f1 f13f d457 08d5 a691 a0bf
00000530: 983c 1b5f 49d3 c23f 7ede 390f 0fbb e03f
00000540: 627d 4d5c fa46 d13f a6d1 c709 7da0 c73f
00000550: 0fa5 a230 cebe dc3f 41c5 0c5e cb4c 9d3f
00000560: 655b c31a 9af2 c63f 608e 9df5 b9f1 dd3f
00000570: de35 1415 86ab d53f 04e8 d366 9da1 a83f
00000580: b346 2538 dbc9 ba3f 9dd1 34b5 3b4b c33f
00000590: 804f 9da9 cd6f e73f 6905 2e80 1cb6 be3f
000005a0: 90b7 85e9 3731 c83f 4520 812a 9d71 cb3f
000005b0: d926 b5d2 8540 d8bf eb9f acdc 719f e33f
000005c0: 6e97 d407 dbc5 c63f ee81 4cd0 e4d0 a5bf
000005d0: 30e2 5402 0d08 b43f a106 2f2f fef5 9e3f
000005e0: 9889 29f5 4b17 d43f 34b5 f83b c2f9 b43f
000005f0: 63a4 2b18 935c d03f c777 8d62 3ee5 d63f
00000600: 075b 899e a27e c33f 9e07 d87a 3088 cf3f
00000610: 10a2 9ffe 86bc b33f c9d2 3bce 583d 94bf
00000620: 12d2 5235 f8c0 ae3f efd1 3011 9f73 c03f
00000630: ca97 92c4 d962 c63f 5332 9763 1969 e6bf
00000640: ba0b 0ea8 063d b43f 9cab 4880 da22 a83f
00000650: caf8 5fb2 e9f2 c23f aa69 619d e393 be3f
00000660: 8323 198b d5a8 aa3f 10ed 41ba fb22 c33f
00000670: c8ef 7504 f9ba d23f 9826 99d4 1c7c e1bf
00000680: bb4d 5cf5 a7d9 c23f a32f 2491 0b38 c23f
00000690: 56f4 aa1b e902 db3f 5883 8693 07c7 963f
000006a0: 8e44 7d37 1828 d13f 5863 0b98 aa92 dd3f
000006b0: fbda 5893 0295 c03f 8393 0841 3ee2 c53f
000006c0: e8bb e7ec 9adc bf3f 07c8 fade 9892 c53f
000006d0: 0d3b 6d5e 016e b53f 640c 4935 d2c5 c03f
000006e0: f8f4 88fe c2b1 d63f 9de2 13ed bd65 e33f
000006f0: bec0 876f 6305 b23f 98b1 6504 452e a53f
00000700: f308 6f85 61e5 973f 37eb 15bc 488e cf3f
00000710: ff8b 17d8 dd02 b63f 29ec d285 8f8a f33f
00000720: a89f 855d e527 f03f 6803 5fa0 054c 94bf
00000730: 01ca cbd8 74da a33f 5cdc 5c8d d6cb e23f
00000740: 8489 34b2 c055 d53f 61ca 9856 bcd9 d53f
00000750: 91b0 10a1 6d2c d83f df94 f90d b615 b63f
00000760: d1de 07d8 2d44 cc3f 4af2 4bca 3c1c de3f
00000770: a0c8 bb0b bf4a c93f 3de4 bacc fcb6 c43f
00000780: e105 4376 b5ee bc3f 4024 e5f4 6840 b53f
00000790: ff6a f774 fb18 ed3f 504f b3ca ac35 c13f
000007a0: 1d07 b3a6 d0cd 603f ce91 bc18 f8ef d13f
000007b0: 97ff 4f83 d8ef d9bf acae 77fd bef6 ea3f
000007c0: 5cc3 5536 8424 bc3f ea66 dbb5 68eb c23f
000007d0: 1ed3 431c 557a 9c3f 8a9d 3f2b c439 d03f
000007e0: c75a c941 0078 d83f 3434 d83c 825a c63f
000007f0: 6bd1 2b09 ab27 c63f a094 1104 2e7a d33f
0.21674351627196214 0.1101115939663636 0.12784471139196119 0.1114750607277167 0.1011702346605746 0.061680595706749025 0.26264505290972934 -0.704566097310447
0.20620598758259917 0.2118637911700781 0.044574670395966944 0.11442475104109319 0.0608139319669336 0.1567349719314096 0.38483561273264266 -0.545969892588313
0.11529710865124168 0.11613215393467496 0.3511331725523894 0.2355666939808699 0.1768678726767776 0.36187662871791926 0.014262526882516025 0.21776556865455055
0.08042855371812073 0.1489315455484783 0.02222318118450426 0.20877932045467365 0.38615638160934085 0.4257247863237287 0.14189723040858132 0.16433978463141008
0.12968077632124875 0.23033906259999537 0.1690106432017921 1.22286292194273 1.0743463463192469 0.09902938994248472 0.030362606823969716 0.5738578308822874
0.3792738846353416 0.18647238890669948 0.34706930834269506 0.019878035576730565 -0.000512877367045043 0.4805681100288803 0.36579912266430886 -0.012479167009536739
0.15882335995389635 0.12383732272580597 0.8996060025715743 0.13552120952521196 0.09952871197910208 0.13897946946313605 -0.3376121414223114 0.6049542921041994
0.2262137803585189 0.04402442480043531 0.13428537959919457 0.13307696690072846 0.3341504649695638 0.1080476506304088 0.23962826180631408 0.4619442878268065
0.08086230997040196 0.311578056025153 0.15519706057272317 0.17394984637215455 0.1693701861118689 0.0823463664138626 0.12047575887174589 -0.5548652244490946
-0.011402727527191896 0.24638134313606982 0.131239496756884 0.03482432893661744 0.1952304314178401 0.06393598175462793 0.3366602067331376 -0.5181350252904887
0.1951891957860863 0.2197935833850617 0.2600862126255248 0.24365191106064524 0.2191995968843973 0.5006752566709152 0.04305428436001443 0.06003150788290217
0.07420756188979068 0.06784786921417009 0.14948350875414032 0.19119106763122107 0.49233505279111767 0.47030465004302985 0.17515500403089626 0.07637790094047833
0.01022514548555327 0.3343357704726744 0.16903439931798617 1.1059365852560883 0.9625758944450263 0.18274335273017045 -0.0129299592660849 0.40173382159497195
0.35497355537303377 0.317456403140142 0.377356801041952 0.1582381864170034 0.003928819885184162 0.4689060494439761 0.2368082829787954 0.11247066581388387
0.0029894300119694423 0.07661942839258029 0.8070885584435926 0.2881124223321851 0.1660415256064973 0.18473987012037368 -0.4307784847298117 0.707182259663168
0.012459552980480277 0.14947506389256981 0.1750234639394561 0.09521806733701152 0.3911516163095496 0.2176324312696413 0.23358651154082583 0.3658943988852876
0.038405476557120316 0.20273345860620456 0.15295871143135284 -0.06098764834242137 0.03919145805165427 0.055820958709756716 0.169347292240345 -0.6796472220767305
-0.033266138639555035 -0.0036361204054777504 -0.004284548007900354 -0.008671512372556813 0.08631343760871767 0.16325116712100676 0.3974465022785735 -0.5415820311884769
0.09428083828774485 0.17020600422455515 0.22781913161339376 0.11034823564148656 0.17176686584657197 0.44526908287063394 0.05918916977856279 0.12029589906089035
0.02193344181773067 0.19028647747404923 0.061992293520822195 0.06961064350519242 0.3102722962938854 0.5291009410486363 0.2340359233991221 0.18198638546219717
0.16881597243209648 0.29708601095848447 0.005419665255014781 1.2667445386445466 1.1215435203891069 -0.03236123419280515 0.14707295554987776 0.5228343293556035
0.2699571515458584 0.18458521821561397 0.4491458392099767 0.028613259902333658 0.17927862459938662 0.4678788088406005 0.33859397943964875 0.04810802345487278
0.10464258309118683 0.15073343608822834 0.7323978722365467 0.11996629838360708 0.18900202658136012 0.21440472197923746 -0.3789381559077874 0.6132134733243196
0.17791307337136736 -0.042609358241182935 0.0782478457157445 0.030235263471473876 0.31392191831232585 0.08193601574085535 0.2556503044166389 0.35774192451742376
0.15230210057298896 0.24634366987453132 0.07709544865031881 -0.019765269839768593 0.06006599093362665 0.12852848376645862 0.1748916826083458 -0.7003294892434248
0.07905618288900387 0.04714091125455086 0.14803811273299622 0.11944410888955895 0.05206935236908008 0.14950510592084543 0.2926619094430376 -0.5464004661855197
0.1472673366593947 0.14233536326389382 0.4220526476090688 0.022243612651098615 0.2680721799743616 0.46207680557340813 0.12954742617304035 0.17096689391578587
0.12445991786783817 0.16853629005123613 0.08370979838694499 0.13103702165435316 0.354599712914776 0.6061696653769847 0.07039472077281325 0.04136863402058849
0.023335956353329256 0.24652966674678975 0.08598124051745513 1.2213282802101821 1.009740224189935 -0.01982125083282274 0.03877606531559153 0.5873825798979726
0.3333589306149849 0.34141453224871127 0.3777116845037734 0.08626878586945307 0.22083066032768398 0.4704734778931977 0.1975935752194049 0.16183433529457317
0.11301740777255233 0.08301406840213676 0.9092995914937488 0.13445053002817042 0.0020512652605199203 0.280271553189121 -0.4052640230511257 0.8426203680550848
0.10993219687021621 0.1478091133092712 0.02781041131034378 0.25352577422605604 0.3823242800184911 0.17463710757184148 0.17308557460604432 0.3043322601063867

Linear3.bias f8 [64]
00000000: 053e 3897 5177 a2bf bf5c 96a4 9941 a5bf
00000010: ba89 4661 283f 9b3f 66ce 676d 7fd8 b23f
00000020: 28cc 0897 733a af3f 6974 3ab0 e20d a1bf
00000030: 8aae e207 63dc 4d3f 2ee2 c598 c316 943f
00000040: cb55 839a da5e b63f 4bd6 f7fb f6f7 d0bf
00000050: df1d aa41 28cc b63f 410c f618 8529 b5bf
00000060: 6255 7e12 30bc 90bf 7631 fe69 1633 973f
00000070: fc7d ae17 5193 b1bf 9680 4002 a548 c33f
00000080: f5ab 1daf f4e9 b63f 0000 0080 850b b6bf
00000090: 1bca 6c6e 50b7 a63f fed4 16f7 c7a4 c53f
000000a0: 7a94 4569 6e59 c93f 8fad 5f89 d840 c6bf
000000b0: 0000 0000 8172 bcbf 6cba f183 ca21 a13f
000000c0: fd2f fa66 f957 c93f b7c4 fc61 a131 ad3f
000000d0: fa7c 3dbd 829e a9bf 09c7 be2d d3a9 c33f
000000e0: 05f6 5b73 5014 b6bf 78c0 e0a5 56fc 9abf
000000f0: 8af9 8d9d 2e57 73bf 8a23 be2f faf7 c13f
00000100: a3c0 e0da c557 c0bf ec31 0e8a 1e0f b83f
00000110: a868 9344 f8a6 753f 270a 41e4 4b57 c83f
00000120: 3188 c4b7 535c c53f f3e8 36dd 4dea a83f
00000130: 53ea 6a63 7ac1 90bf 4acc 336e 8d32 c13f
00000140: fd80 943a de3f a3bf b763 f3ec bd6c bb3f
00000150: 3403 b586 aaf3 b23f 9c1e ca2f 5894 c83f
00000160: 8414 b967 4877 ba3f ae51 5680 e170 a1bf
00000170: 9c7f 5016 e608 acbf a7ff c8d9 6764 c6bf
00000180: 303d 2924 b230 c2bf 6f60 cee8 3798 b03f
00000190: 1460 ea87 c39d d0bf 4cc3 7b66 d06b 93bf
000001a0: 48b3 4a5e 1912 88bf f200 a732 b2d8 a5bf
000001b0: 8a4d 6762 f130 a0bf 024b 380f 8a2a b7bf
000001c0: f68d 53d8 e925 a33f 6ef8 c422 b273 8c3f
000001d0: 3a62 5b17 5a08 6e3f c1e8 bf8b 8498 b7bf
000001e0: 6602 d718 1f0a 7dbf 9942 22bb 2612 aebf
000001f0: 43df 7f98 93b5 c13f 8324 654e 377c b13f
-0.03606657954162177 -0.0415161145603462 0.02660811513636372 0.07361599370033786 0.060992824732601314 -0.03330906296944464 0.0009112819241372122 0.01961808795883451
0.08738485595980376 -0.26513456922780126 0.08905269244325308 -0.0826647935810323 -0.01634287941813762 0.02265582105569438 -0.06865412548221878 0.15065443620642743
0.0895073821572366 -0.08611330389976501 0.04436732624016689 0.16909122052098974 0.198041726495976 -0.17385393817617653 -0.11112219095230103 0.03346093044898599
0.19799726036251278 0.057019274913167654 -0.05003746566830532 0.15362014516500036 -0.0862474710119941 -0.02635321986616687 -0.004721815196602095 0.1403801663512037
-0.12767861544989953 0.09398070211881987 0.0052861879314269125 0.19016407628267126 0.1668800971320379 0.048662598851892634 -0.016363060300799436 0.13435523873303828
-0.03759664979065922 0.10712801966600592 0.07403054989573549 0.19202711423371432 0.10338261158274703 -0.03406433765045179 -0.05475539228814272 -0.17493913778343748
-0.1421110798423597 0.06482266839737048 -0.25962913773537477 -0.01896596551427203 -0.011753271284158054 -0.04266888492884559 -0.03162340475287369 -0.09049284812526184
0.0373986317224783 0.01389254730804287 0.003666091880273362 -0.09217098628861022 -0.007089730713631148 -0.058732233375058125 0.13835377641930266 0.06830163635199153
